Pytorch-classifier-cnn/cifar_net.pth (torch, 250964 bytes, 10 tensors)

feature_extraction_layers.0.weight f4 [6, 3, 3, 3]
00000000: 0270 04bf 061f a4bf e727 7cbe fb62 023d
00000010: 451c a13d 3b28 283e ec2e 913c f4c0 b13e
00000020: 9212 1fbe 0e12 db3d 7947 efbe 2981 dd3e
00000030: 482c 173f 5968 1a3f e4f3 413f 5893 003e
00000040: 3c7f 083f 7b28 9c3d b2c8 db3d c9dd 0cbf
00000050: dc3d 953d 2e07 cd3d 50f8 b5bc 126a e33c
00000060: 2a13 0dbf 75ea 1dbe a8ac f7be 8e23 c73d
00000070: 7bc9 953e e2a1 d83d 8169 59be 61db 06be
00000080: 4ffb d4bd eb05 d7be 3d08 c4be 2c34 cbbd
00000090: 91db 98bd fc7b 583c 1cf7 72be f21c 56bb
000000a0: 3da1 fd3c 38fa 9cbd f59d cfbe a644 96be
000000b0: df62 513e 16c7 643d 2b52 2b3d 6cb7 3bbe
000000c0: 4ab2 2d3e b3d9 d0bd 9782 31bd 7e04 e7be
000000d0: b805 9abe 6d1d 013e ee50 163e 5577 133e
000000e0: b05c f93a 2a7c e8be 0897 053e d9fa f83d
000000f0: de41 51bf 37cd 303e ab11 193f 2c56 bfbe
00000100: bfeb 833d 822f cdbb 63d4 18bf 7bff 7a3e
00000110: ae25 1e3f 370d 65bf 3b69 963d 38d4 343f
00000120: b6bf 85be 594c 8d3e 3448 22bc 88e3 12bf
00000130: bd71 013e 43ac c93e 0bec 4fbf e0e1 963e
00000140: c1f2 2d3f 4776 0fbf ca3c d7be 60ab a9be
00000150: 0e01 debe 0c89 1abf 4d17 14bf 9fb1 dd3c
00000160: ae9a 013e c3bd bf3e 0803 34be 244f acbc
00000170: 5c3c 1ebe c13a 27be db22 bcbc a62f 98be
00000180: 6535 513e d309 853e ddef 823e 6829 0b3e
00000190: 7907 143e f8fa 5e3e 57ed 933d ccbb dabd
000001a0: 1680 6a3e 37bb 143f 5fb1 e23e 10d3 003f
000001b0: 7d27 9ebe e06f 713d cf8f d73d f6f2 1ebd
000001c0: afde 1d3e 6173 953d f13e 2c3e 45a2 a8bc
000001d0: 290b 40bc 5acd f3bd 67fe 14be 9ad9 173e
000001e0: 1cc7 543c 8d34 d7bc 0daa 4abd 475a 3d3e
000001f0: 7a1d 36bd 8188 11be 59bd b43d 2d16 ad3e
00000200: d159 263e 863c a3bb 210c 8c3e fd7d 0a3e
00000210: 7518 0bbd 69f4 763e 3596 3bbd 5728 103f
00000220: 13de 773f e213 b43e 6791 4dbe a148 aebe
00000230: f115 7abe 93b8 2dbe 4cd4 4b3e c688 553e
00000240: ce88 5b3e b62f a43e 8c59 f5bd 1068 23bf
00000250: 3d26 5bbf d16d 4dbf 74d1 9fbd 8095 9bbe
00000260: f320 8f3d 86ac d63e eb46 633e ce75 cd3e
00000270: 7387 84bc 19e7 00bf 83b8 a3be f065 3b3e
00000280: a2e8 733e 2a4e c13e
-0.5173341 -1.2821968 -0.24624597 0.031832676 0.0786672 0.16421597 0.01772257 0.34717524
-0.15534428 0.10696803 -0.46734217 0.43262604 0.5905194 0.6031547 0.7576277 0.12556207
0.53319144 0.076249085 0.10731639 -0.5502592 0.07287189 0.10011135 -0.022213131 0.02776054
-0.5510737 -0.1542147 -0.48373914 0.097235784 0.2925528 0.10577752 -0.21231653 -0.13169624
-0.10399496 -0.41996703 -0.38287535 -0.0992206 -0.07463754 0.013213154 -0.23727077 -0.0032671061
0.030960673 -0.07664913 -0.405502 -0.2934925 0.20447873 0.055853926 0.04182641 -0.18331689
0.16962543 -0.10197773 -0.04333743 -0.45120615 -0.30082488 0.12608881 0.1467931 0.1440099
0.0019024815 -0.4540723 0.13045895 0.121572204 -0.8174113 0.17265783 0.59792584 -0.3737043
0.064414494 -0.006261767 -0.59699076 0.2451152 0.61776245 -0.8947329 0.0734429 0.7063632
-0.26122826 0.2759731 -0.00990491 -0.57378435 0.12641044 0.39389238 -0.8121955 0.29469204
0.6794854 -0.5603985 -0.42038566 -0.3313856 -0.4336018 -0.60365367 -0.57848054 0.027062235
0.12656662 0.37449464 -0.17579281 -0.021033831 -0.15452713 -0.16331007 -0.02296584 -0.29723853
0.20430525 0.25984058 0.25573626 0.13590014 0.14455976 0.21775424 0.07223003 -0.10680351
0.22900423 0.5809817 0.44275948 0.50322056 -0.30889502 0.058944583 0.10525476 -0.038805924
0.15416978 0.072973974 0.16820885 -0.020585189 -0.011721411 -0.11904402 -0.14550172 0.14829102
0.0129869245 -0.026270175 -0.04947858 0.1849147 -0.044461705 -0.14212228 0.08825178 0.3380598
0.162452 -0.00498158 0.27353004 0.13524623 -0.03395887 0.24116673 -0.045797545 0.56311554
0.96823233 0.3517142 -0.20074998 -0.34039786 -0.24422432 -0.1696494 0.19905204 0.20852956
0.21438906 0.3206765 -0.1197997 -0.6383066 -0.8560522 -0.8024569 -0.07803622 -0.30387497
0.069887064 0.419285 0.22195022 0.4012894 -0.016177868 -0.5035263 -0.3197671 0.18300605
0.23819211 0.37754947

feature_extraction_layers.0.bias f4 [6]
00000000: 0af1 53bd 7163 1fbf 82ba dabd cce7 823e
00000010: c192 5d3e d310 7ebe
-0.051743545 -0.6226111 -0.10680105 0.25567472 0.21638013 -0.24811105

feature_extraction_layers.3.weight f4 [16, 6, 5, 5]
00000000: 7851 9a3c 7f0e 31bd 6ac9 9fbc 907e a93d
00000010: 4e2c 893d ff93 4abd aec8 52bd a6be 1b3c
00000020: 5545 4e3d 1c74 0b3c 1d7f 5ebd 8877 b33a
00000030: b009 c3bd e852 5bbe c247 c9bd a379 a8bd
00000040: 5b38 83bc 96b0 6fbe eb37 2abe d070 b1bd
00000050: c8a5 bc3c 6c82 e0bd 7bfd 03be 077a 22be
00000060: 0e18 b7bc a7db 5f3e f469 0a3e a5d7 dd3d
00000070: 00ea 19be a2f9 90be b614 a63e 3c0b 0c3e
00000080: 7423 51bd f872 54be 56c6 8fbe bce4 a03e
00000090: ca0f 3d3e ff0f 78bd 05bb 7dbe 95af 80be
000000a0: 6c08 8c3e fe5a 253e 66fd b1bd 5980 55be
000000b0: b85e 72be 590e 693e 3b22 ea3d 6d8c 25be
000000c0: e749 2cbe 8c10 7bbe 07cc 52be 8370 aabd
000000d0: 34ac db3c 8ed4 333e 7589 7e3d d361 1fbe
000000e0: 28b7 3f3d fd75 463e 5579 6c3d 3b3a 35be
000000f0: ef4b 61bd 4aec 353e bbbc fa3d adb9 c5bd
00000100: 3186 b0bd c744 51bc 3c4a 113e 6136 0ebe
00000110: 1816 c2bd 9467 16bb ed4b 443e e814 0c3d
00000120: f1fb 8dbd 614f 623d 6990 693d 980e 64be
00000130: 4278 7ebe 5b9b 063d eed5 563e 1820 7d3e
00000140: e848 58be ba22 06be 0983 0c3e 92e3 4d3e
00000150: 0e3c 5cbd 0976 78bc cbc8 f6bc 29a4 063e
00000160: b0b0 2dbd 50ed 01be cf3f a33c 19ff 0c3d
00000170: ea7b 513c 5b4a 76bc ae09 abbd 1e7e a53d
00000180: 2d53 113e c227 f93d 0811 64bc 440b 24bb
00000190: 210a 79be fb98 7ebe efde 7bbd 99c0 4c3d
000001a0: db12 873e f41b dbbe 5033 72be dcb7 7ebd
000001b0: c3ea 993e f88b 9f3e 7a75 d8be aab1 61be
000001c0: 19b4 563e db4f 623e 77ad 793e b630 81be
000001d0: eb5f c5bc c8d1 053e 1f06 e63d 02c9 8a3d
000001e0: 2750 50be d3b4 51bd c25a dd3d 4bfd 9f3d
000001f0: d28a c8bd 2c93 853c 4502 443d edb4 a0bd
00000200: da87 b5bd ddd3 aabd 2371 333e dfc9 013b
00000210: 2ced 1cbe 7293 a8bd 80a4 27be eae1 a03d
00000220: a50d 0abe adb4 6dbe a221 40be e3f6 56be
00000230: eb14 b53d 158d 8dbc 8ec2 03be 579b 0fbe
00000240: df90 4dbe 62a2 65bb 4391 bb3c 239b 19bd
00000250: 70f4 5fbe a890 6abe fc6e c1bd 284c 06be
00000260: a55b bfbc bd1f 16bd 0b71 93bd c682 76bd
00000270: 414a bfbd fcf9 24bd f1c0 48bb 9038 27be
00000280: 195c cebd 18e2 95bd db47 20be f2d4 c0bd
00000290: 39ac fdbc ca70 9fbc 18c4 77bd 3527 21bd
000002a0: b59f 153d b892 1a3c 822b 963c d93b f63c
000002b0: b27f 083e 27fb 663e 0466 3a3e 6d21 f0bd
000002c0: 4e7b 6dbc 66ca d4bc 93a7 06bd 6da8 6dbd
000002d0: e71b b8bd 66c5 de3c 09c4 14bd eb24 9b3b
000002e0: 0c81 ba3d b8ae 4dbe 3071 c5bc 2f28 bdbd
000002f0: f5de 513d c4bd 513c ffbf 82bd e005 88bd
00000300: 2c71 c4bd 3009 053d 21e5 d03d 88ef 293c
00000310: 2a1b 75bd 9de5 df3d 3c1c 1bbc 372e eebc
00000320: 688a d2bc de99 9a3d 1613 963d 1ceb 0bbd
00000330: 776e 243e e695 7cbe 01b5 b13e e740 56be
00000340: f79e fa3d 3432 4aba 6f8d d2be 70e2 423f
00000350: 1938 cdbe 3273 343e 2762 1bbc 8b7d 8dbe
00000360: 076b 4b3f d26b cbbe 51a3 823e a5b0 e4bb
00000370: 990a b7be 6d02 c13e ef78 0ebf de52 2cbe
00000380: 3286 a8bd a26d 663d 092f 723d ef5c 2d3e
00000390: 03e2 743d de58 173d 61e9 7a3d e900 ff3d
000003a0: 600f ad3d a557 a63d 9237 54bd fe4a 48bd
000003b0: 0dcd 3c3d 0195 adba 4e0e 393d b1ba ad3c
000003c0: 79d0 8dbe 6bcc 32be 4081 19be 587b f6bd
000003d0: 8b68 b1bd 889f 56bd 8d83 cd3d 5370 443e
000003e0: 8ac7 283e 88f2 1d3e 2405 e03d 114d 7e3b
000003f0: e211 c23d f691 f53c 44bf 403d 6043 123e
0.018837675 -0.043226715 -0.019505221 0.08276093 0.066979036 -0.049457546 -0.051460914 0.009505903
0.05035909 0.008511569 -0.054320443 0.0013692239 -0.09523332 -0.21418345 -0.0982814 -0.08226325
-0.016018083 -0.23407206 -0.16622894 -0.086640954 0.02302827 -0.10962376 -0.12889664 -0.15866862
-0.022350337 0.21861134 0.1351698 0.108321466 -0.1503067 -0.28315455 0.32437676 0.1367616
-0.0510592 -0.20746982 -0.28081006 0.3142451 0.18463054 -0.06056213 -0.24778374 -0.25133958
0.27350175 0.16147992 -0.0869091 -0.20849742 -0.23668945 0.2275938 0.1143231 -0.1616685
-0.16825067 -0.24518031 -0.20585643 -0.08322241 0.026815511 0.17561552 0.062142808 -0.1556466
0.04680553 0.19380946 0.0577329 -0.17697994 -0.055004057 0.17765918 0.12243029 -0.096545555
-0.08619345 -0.012772745 0.14188474 -0.13887931 -0.0947687 -0.002294992 0.19169588 0.034199625
-0.0693282 0.055251483 0.057022486 -0.22271192 -0.24850562 0.032863002 0.20980045 0.24719274
-0.21121562 -0.13099185 0.13721861 0.20106342 -0.05376821 -0.0151648605 -0.030125042 0.1314856
-0.04240483 -0.12688184 0.019927887 0.034422968 0.012785891 -0.015032376 -0.08351456 0.080806956
0.14191885 0.12165786 -0.013920076 -0.002503113 -0.2432027 -0.24863045 -0.061491903 0.049988363
0.26381573 -0.42794764 -0.23652387 -0.06218706 0.3006192 0.31161475 -0.42277128 -0.2204043
0.2096714 0.22100775 0.24382578 -0.25232476 -0.024093589 0.13068306 0.11231636 0.067766204
-0.20343076 -0.051197838 0.10808326 0.07811984 -0.09792103 0.016305529 0.047853727 -0.07847009
-0.08863802 -0.08341191 0.17523627 0.0019804162 -0.15324849 -0.08231248 -0.16371346 0.0785559
-0.13481767 -0.23213454 -0.1876283 -0.20992617 0.088418804 -0.017279187 -0.12867185 -0.14024101
-0.20074795 -0.0035039415 0.022896415 -0.037501466 -0.2187059 -0.22906744 -0.09444997 -0.13114989
-0.02335913 -0.03665136 -0.071992956 -0.06018331 -0.09340335 -0.040277466 -0.003063258 -0.1633017
-0.1007616 -0.073185146 -0.1565241 -0.09415616 -0.030965911 -0.019462962 -0.060489744 -0.03934403
0.03652926 0.009434395 0.018331293 0.030057834 0.13329962 0.22556745 0.18202978 -0.117251255
-0.01449473 -0.025975417 -0.032874655 -0.05802195 -0.08989697 0.027193736 -0.036319766 0.0047346256
0.09106645 -0.20086181 -0.024101824 -0.0923618 0.05123802 0.012801591 -0.063842766 -0.066417456
-0.09591898 0.032479465 0.10199953 0.01037205 -0.05984036 0.10932467 -0.009467181 -0.029074771
-0.025700763 0.07548879 0.07327859 -0.034159765 0.16057764 -0.24666557 0.34708408 -0.20923196
0.122373514 -0.00077131693 -0.4112353 0.76126766 -0.40081862 0.17622069 -0.009483851 -0.27634844
0.79460186 -0.39730698 0.25515226 -0.0069790655 -0.35750273 0.37697163 -0.5565328 -0.16828486
-0.08228721 0.056256898 0.059126887 0.16929983 0.059785854 0.036949985 0.061257724 0.124513455
0.08450198 0.081221856 -0.05181081 -0.048899643 0.04609399 -0.0013243259 0.045179658 0.021207185
-0.27698115 -0.17460792 -0.14990711 -0.12035245 -0.08662518 -0.052398235 0.10034857 0.19183473
0.16482368 0.1542455 0.109384805 0.003880326 0.09476067 0.029976826 0.047057405 0.14283514

feature_extraction_layers.3.bias f4 [16]
00000000: a2af 5f3e 7192 22bf a9ca 923e 153b 4fbe
00000010: feb8 63bd caf4 8f3f 27dc 5b3e 53f3 a1be
00000020: dead 1ebf 81f6 c53d 08f6 8c3e e69e 233f
00000030: 0a79 ddbe 88c1 f53d 1838 2b3f 1159 d5be
0.21844342 -0.635047 0.28670242 -0.20237382 -0.055596344 1.1246579 0.214707 -0.31630954
-0.6198405 0.096661575 0.27531457 0.63914335 -0.43256408 0.11999804 0.6688247 -0.41669515

linear_layers.0.weight f4 [120, 400]
00000000: 9e0b a33d eb53 f43c 4fec bf3b 8b09 d5bc
00000010: d998 193e cebc 7b3d 6cc0 3abd 39fc c03c
00000020: 38a4 ab3c 69f4 303d aefb 443c c498 f73c
00000030: 4b2c 14bd 62cb 8dbc 938e abbd 4d21 6a3c
00000040: 4285 8ebb ff48 46bd 4576 d5bd abf4 4ebe
00000050: d148 d8bd e9ec c2bd 0750 a53c 21a8 e6bd
00000060: 6067 b6bd 8f91 2b3d 2da2 45bc fd92 153d
00000070: deed 183c ea68 80bc 8ef2 e23d dc95 e03c
00000080: db82 7c3d cefd 0d3e 535a 883d 3733 b93c
00000090: 07b1 25bd 9a42 0d3c 8a71 693d d2fc a93d
000000a0: 2b4b 59bc c766 573d 37d1 493d e4cc 853d
000000b0: e0e6 8a3d 0e81 4e3d 015d bfbb fae3 da3c
000000c0: f5d4 4dbd d8e6 14bd 31e3 e33d 3919 383d
000000d0: e75c 6ebd 5fda 883c b23d e33c ccdb 3e3d
000000e0: 846f 2e3d b645 c23c 8bdd 313d 54b1 2d3c
000000f0: 4ecb 003d 3fdb 8a3d 385e 87bb e4c9 b33d
00000100: 8581 b83d aac2 25bc 5d6c 3f3d 9207 c5bc
00000110: 930d ccbc ccea 7c3d 2dd5 16bd ac61 203d
00000120: d5ac 16bc 7202 3abd c33e 653c e9e8 c33c
00000130: f22c 3f3c 9e6a 3eba e639 623d f13f 063d
00000140: 0f74 5dbc 6fb1 4a3d 8e0f 213c 96ba 11bd
00000150: ba45 363d 6ffb 033e ad87 a43d 2536 37bc
00000160: 13db 113d f19a c73d 1df5 b53d 9553 893d
00000170: 8e43 5abc 809a 8c3b 1aed 5c3c a44c 70bd
00000180: ab21 ffbc 56da 10bd 3d75 8bbd 7a2c 023c
00000190: 30a7 ab3d dd01 163a a6ba c33c dc3e 8b3d
000001a0: d943 ce3d d577 893d cb44 af3b e7a5 403b
000001b0: 4956 b9bb 8ea7 0fbc 353b 4d3d 2a21 63bc
000001c0: 4365 f53c 3b72 dabc 3318 d6bc 780c a7bc
000001d0: 0e41 a4bc 7ce6 793d 0519 9f3d 09d9 8d3d
000001e0: b886 54bd c74a 96bd 3627 a9bb 9b28 08bc
000001f0: a365 a1bd d68b cdbc c587 2abd 9c99 59bc
00000200: 0c19 14bd f3bb 903c a9ac 753d 7804 ce3d
00000210: 3ac8 073e c6a9 c53c e1e8 32bd f2ab 87bc
00000220: fd93 c53d e218 1b3d 1bb4 a33d 193f 2bbd
00000230: 3a47 9abd 43ab 38bc 6d8a eebc 2cf7 d4bc
00000240: a7be 40bc 31ae 92bd b0f9 513c 6b1e eabb
00000250: 0ff4 32bd 141d 84bd 0edd 823d d5e3 96bd
00000260: 80f1 91bd 2225 33bc ee12 2a3c 9f7e 5cbd
00000270: eedf 8fbd 8aa1 91bd 9fad 4dbd 9834 183d
00000280: fbb5 dabd 5474 793c b54f 8b3d d849 8ebb
00000290: 9f52 98bd de76 92bd cab6 aabc cb11 02bd
000002a0: 8a45 63bc 82d9 54bd e187 22bd 36c4 a6bc
000002b0: 4d38 7cbd 4daf 09bd 0c50 16bd f771 5ebc
000002c0: d20b 083c 7755 813d f53a df3c 9e87 e6bb
000002d0: abc3 1b3c a104 423d 4286 01bd 4bda f0bc
000002e0: 1f83 60bd eb89 d2bc 7923 4ebc 9bbf 17bd
000002f0: 2370 b13c b47d a73b fc8f 193d 5d50 61bc
00000300: 2d1e 253a 5c2a 5ebb 85c2 ec3b eb4d 583d
00000310: 7d5d 353d 0769 803c a3a2 373d 7742 f63c
00000320: 2a63 5d3d ee7e 5e3d 9556 f23d 39c1 b33d
00000330: fb76 e13c 9312 253d 5191 b33b cc62 ed3c
00000340: 7223 6d3d de65 cd3d 3b3a c83c 3d2e 80bc
00000350: c67d 54bd 2464 9bbc 1b8f be3c e412 a43d
00000360: 6da7 9a3d 7778 6b3d 5080 36bb 5478 193d
00000370: 1400 5dbd 4bab 17bd 7771 59bd a630 6ebd
00000380: 0bfd d6bd c7b9 0aba dcc0 123d 0922 1e3d
00000390: d1dd 983c 301f 7ebd 8c59 e93c 2921 07bd
000003a0: df3e 22bd ced2 80bd 14ce f1bc e705 5fbc
000003b0: 7629 f83c ba35 b7bd e4d9 23bc ff9f 2e3b
000003c0: e5b8 833c 89bc 4cbd 2218 92bc f1bc 00b8
000003d0: 13e3 3e3d 01af 08bd 8fba 8abd ee0b 6f3c
000003e0: b068 4fbc 4390 9bbc e582 6ebd 4c7a 6cbd
000003f0: e777 b4ba e3d9 40bd 60fe ad3c c8d5 bf3c
0.079612 0.029825171 0.0058570276 -0.026005527 0.14999713 0.061459355 -0.045593664 0.02355777
0.020952329 0.043201838 0.012022896 0.030224212 -0.036175054 -0.017308895 -0.08376803 0.014290166
-0.0043493817 -0.04840946 -0.10422949 -0.20210521 -0.105607636 -0.09517843 0.020179762 -0.11262537
-0.08906436 0.041886862 -0.0120625915 0.036517132 0.009334056 -0.015675027 0.1108142 0.027415209
0.06164823 0.1386635 0.06657853 0.022607429 -0.04045203 0.008621836 0.056993045 0.08300175
-0.01326255 0.05258825 0.04927179 0.065332204 0.06782317 0.050416045 -0.0058399444 0.026720036
-0.05025192 -0.036352962 0.11127318 0.04494593 -0.058194067 0.01670569 0.02773938 0.046596333
0.04258682 0.023714881 0.04342417 0.01060136 0.031443886 0.06780099 -0.004131105 0.08778742
0.09009079 -0.010117212 0.046734203 -0.024051461 -0.024908816 0.061747357 -0.036824394 0.039155647
-0.00919648 -0.04541249 0.013992014 0.023914771 0.011668431 -0.0007263812 0.055230998 0.032775823
-0.01351644 0.04948562 0.009830369 -0.035578333 0.04450009 0.12888883 0.080336906 -0.011182343
0.035609316 0.097463496 0.08884642 0.06705395 -0.01332177 0.004290879 0.013484264 -0.05866684
-0.031143984 -0.03536447 -0.06809471 0.007945174 0.08381498 0.00057223235 0.023892712 0.06799099
0.10071535 0.06712309 0.005348777 0.002939576 -0.005656038 -0.0087679755 0.050105292 -0.013862887
0.029955512 -0.026665797 -0.026134586 -0.020391688 -0.020050552 0.061010823 0.07768444 0.06926162
-0.05188629 -0.073384814 -0.005162145 -0.008310462 -0.07880714 -0.025091093 -0.041633386 -0.013281252
-0.0361567 0.017667746 0.059979115 0.10059446 0.13259974 0.024128806 -0.043679122 -0.016561482
0.09647367 0.037865527 0.07993337 -0.04180822 -0.07533117 -0.011271301 -0.02911874 -0.025996767
-0.011764205 -0.071621306 0.012815878 -0.0071447394 -0.043689784 -0.06450859 0.06389819 -0.07367674
-0.071261406 -0.010934146 0.01038049 -0.053831693 -0.07025133 -0.07110889 -0.050214406 0.037159532
-0.10679241 0.015225489 0.06802312 -0.004342299 -0.07437634 -0.07151578 -0.020839114 -0.03175525
-0.01387156 -0.051965244 -0.039680365 -0.020357233 -0.06157713 -0.033614445 -0.036697432 -0.013576976
0.008303599 0.06315129 0.027249793 -0.00703521 0.0095071 0.047367696 -0.03162218 -0.029400965
-0.054812547 -0.02570053 -0.0125816995 -0.037047964 0.021659916 0.0051114205 0.03749083 -0.01375207
0.0006298747 -0.003389976 0.007225337 0.052808683 0.04427861 0.015675081 0.044832837 0.03006099
0.05404965 0.05432027 0.118329205 0.08777089 0.027522555 0.040300917 0.0054799695 0.028977774
0.05789513 0.10029195 0.024441829 -0.015647048 -0.05187776 -0.01896865 0.023261597 0.080114156
0.07551465 0.05748793 -0.0027847476 0.03746827 -0.053955153 -0.037028592 -0.053086724 -0.058151864
-0.10497483 -0.0005291965 0.035828456 0.038606677 0.018660458 -0.06204146 0.028485082 -0.03299061
-0.03961074 -0.06290208 -0.029517211 -0.013612247 0.030293208 -0.089457944 -0.01000068 0.0026645658
0.016079376 -0.04998449 -0.017833773 -3.0693544e-05 0.046603274 -0.03337002 -0.067738645 0.014590247
-0.012659237 -0.018989688 -0.0582303 -0.05773382 -0.0013768644 -0.047082793 0.02123946 0.023417369

linear_layers.0.bias f4 [120]
00000000: 638f ffbd 9b1d 923d c946 f03d 0cfa d63c
00000010: eff5 b4bd 73cb c73d d0e3 e1bd 5214 a7bd
00000020: 0e18 533c 52ba d13c 3a88 a53e 6cbb 3e3e
00000030: 5ca9 b23d 926c 20bc 086b 9b3a ea36 3cbd
00000040: 5fc4 c43d 49fb 19bd cf73 37bd 9c8f e9bd
00000050: 6009 c4be f8fa 3f3d 3cde 02bd 84cb e13d
00000060: 9741 b33c 6874 d73c bcdc a63d d25e 5e3c
00000070: e361 2dbd fdd1 743c 3d30 8cb8 0e82 e53d
00000080: 52b6 ea3a ae7a a0bd 7ff4 adbc a941 81bc
00000090: 8802 003c 76db 633c 8fcc 2abd 6b8a fe3d
000000a0: 2875 ed3c 8db1 03bd d300 453b c754 d1bd
000000b0: 5d56 603c 4fe1 bfbd 72bd d1bc 0a63 2d3d
000000c0: 85e3 44bd 3087 0dbe d2a8 273d 700c f3bd
000000d0: 1c7a 493d f96c 133d 6dec 133d f0fd 8fbd
000000e0: a82a b83b 70d7 78bd 1ed1 1f3e b160 343d
000000f0: b9b2 263e 4090 dd3c 28a0 903e a977 523e
00000100: 97d3 293c 27f4 bf3d a750 543e 4594 9c3e
00000110: d15b 073e 46af 4d3e 2cb5 203e 56f9 5cbc
00000120: 845e 753e 0807 0e3e 52c8 cd3d bed9 643e
00000130: ce4d 25bd 75f5 0abb 3f20 6b3e 538d 0d3d
00000140: 45c3 1e3d 8448 d7bc e03b 223e f3a6 333c
00000150: 0c35 74bd bbf1 383d a362 42bd 363a ec3c
00000160: 3b32 08be 853f 9fbd 5bad 35be 27e2 a53d
00000170: f06c 2dbd 3cba 213c 273b cc3d 23f5 ab3d
00000180: 9ac0 43be beae c3bc 1088 85ba 6d42 1c3e
00000190: e767 16bd 561b a9bd 731b 373e 05f9 a43e
000001a0: 858c 673c 44d1 afbc 1b3e cc3d b910 62bd
000001b0: c2db b2bd 22e4 03bd d139 533d 1c02 1c3e
000001c0: ec26 90be 6a67 1cbd 1283 a33c c513 22bb
000001d0: e172 02bd ae1d b1b8 93d3 5abe 84e1 febc
-0.12478521 0.07134553 0.11732251 0.026242279 -0.088359706 0.09755602 -0.1102978 -0.08158173
0.012884153 0.02560154 0.32330495 0.18626183 0.08723709 -0.00979151 0.0011857459 -0.045950808
0.09607767 -0.03759316 -0.044788178 -0.114043444 -0.38288403 0.0468702 -0.03195022 0.11025146
0.021881862 0.026300624 0.081475705 0.013572412 -0.04232968 0.014942643 -6.684705e-05 0.112064466
0.0017907119 -0.07835899 -0.021234749 -0.01577838 0.0078131035 0.013907304 -0.04169899 0.12428745
0.028986529 -0.032151747 0.0030060306 -0.10221248 0.013692466 -0.09369146 -0.02560303 0.04233078
-0.048068542 -0.13821101 0.040932484 -0.11867607 0.04918872 0.035992596 0.036114145 -0.070308566
0.0056203194 -0.060752332 0.15607116 0.044037525 0.16279115 0.027046323 0.2824719 0.20553459
0.010365388 0.0937274 0.20733891 0.3058187 0.13218619 0.20086393 0.15694112 -0.013487181
0.23961836 0.1386987 0.10047974 0.22348687 -0.040357403 -0.0021203433 0.2296152 0.034558605
0.038760442 -0.026279695 0.15843153 0.010965097 -0.059620902 0.045152407 -0.04745735 0.02883635
-0.13300411 -0.07775787 -0.17741911 0.08099776 -0.04234022 0.009871062 0.0997222 0.083963655
-0.1911644 -0.023887035 -0.0010187645 0.15259714 -0.036720183 -0.08257167 0.17881565 0.32221237
0.014132624 -0.02146209 0.09972783 -0.05519173 -0.08733322 -0.032199986 0.05156881 0.1523518
-0.28154695 -0.03818456 0.01995996 -0.0024731022 -0.03184784 -8.445546e-05 -0.21369772 -0.031113394

linear_layers.2.weight f4 [84, 120]
00000000: c047 cc3b d2f8 d33d 4058 d23d 3f1c 9c3d
00000010: 9f48 d1bc 7f2c 593b 24cc f73d 1b64 ccbd
00000020: 34b1 013e da8e 7ebd dfae 69bd 0638 c03d
00000030: 057a ed3d f0cb bcbd a313 473e 7374 59bc
00000040: fc29 ccbd ac89 00be 6dff 52bd bd77 36bd
00000050: c495 1ebe 9317 d2bc 6847 d43c 31fa bb3d
00000060: 8009 97bd fcf2 debc ee4c d93d 6340 ab3b
00000070: 4ea1 a4bd 46b6 0ebd e033 80bd 8150 7f3c
00000080: dbb6 96bc a95c 6cbd 1bbf 0f3d 59e1 58bd
00000090: c63e 05be a85a d93d 12b6 1cbc 18b7 253e
000000a0: 0847 39bd 2b48 94bd fa22 193d e590 aebd
000000b0: 5656 dcbc ed92 d7bd 6c05 da3c eac6 15bd
000000c0: ddce 58bd d225 6b3d 5a1e 96bd 195d 86bd
000000d0: 69c8 1cbe 57af c03d 147b 873d 4e9a 73bd
000000e0: 3a3c 10be 3885 91bd aa69 8fbd 752c 4c3d
000000f0: e6d2 cf3d bcbb 33bd 11f9 7c3d 0e22 063c
00000100: db6e 8fbd ea2a c3bd ebcd 0d3d 1bb1 eabd
00000110: 757c 77bd 034c 03bd 5ae9 e7bd 6c96 c33d
00000120: 3d4d 853d 6e4e a0bc 51dd a0bd 6bc0 f73c
00000130: c200 a93c 1841 c23d 2a76 afbb 198b 943d
00000140: dbde 4b3d 2d00 6bbc 2408 5bbb c4b8 963d
00000150: a40e 803d b194 a43d 35c6 efba 71b4 8b3d
00000160: a4cc fcbd 887e f93d 5c1a 333b 5a04 9a3c
00000170: 9a5c 423c ec7d 70bc 5178 0bbd be90 25bd
00000180: 9957 2cbe 94ff 19bd 2c26 ec3d d9df 9abd
00000190: a260 673c 7191 debd 4abd 2c3e a61c 1b3e
000001a0: 055d 5bbb d3c6 e1bc bcae 20bb 7772 b1bc
000001b0: a9a4 06be acaa 2e3c e43f 88bd 73bf 713b
000001c0: 4b98 0abe f0a0 be3d 436b ffbc 410e e13d
000001d0: be0c b9ba 5a7f 7c3d 9d3c 39bd c6de 14bd
000001e0: 4531 b83c 3899 013d b0f1 c23d e0af d6bb
000001f0: e1a0 1cbd e263 5d3d fd57 0c3e 1b28 8d3c
00000200: 6298 e03c 16e5 50bd 3467 3a3d 57e0 df3a
00000210: 3ad8 80bc 7f51 b3bc 3831 e5bd c4a3 153d
00000220: a00d 9f3d 9785 7a3c 5b86 a8bd 4051 7fbd
00000230: 7db7 0abd ce45 58bc 8126 283d bbf2 f5bd
00000240: b652 4b3d 37ed 4cbc ec9d 6b3d edb3 6e3c
00000250: ddaa efbb 834f 9a3c b2a0 993c 301a 22bd
00000260: 917c bcbc 685c 11ba a0f7 6a3d ebb8 a9bd
00000270: f028 39bd 44d7 043d dcb4 24bc ffe3 12be
00000280: 5553 523d a7d5 043d 4019 e2bd bce3 72bd
00000290: 1c72 1fbc dc9c 413d fc54 abbd cc46 b7bc
000002a0: 1e73 b43d f78a 5b3d 335d e13d fdd5 9fbd
000002b0: f01a f23d 54fa 5b3d 8825 cebd a212 fe3d
000002c0: 2e4b eb3d ad4c 9cbb 0eb9 69bd 13e1 98bc
000002d0: 2f92 b03c 7457 5f3d 877c 753d f48e ddb8
000002e0: 9aad 93bd c0f5 9a3d a6c4 82bc 3636 303e
000002f0: 7681 353c 3193 b73c f00e 9d3d d6f2 3c3d
00000300: 2df5 223e bb90 d5bd ae91 abbd a44a 54bd
00000310: 180f 1bbd 2c1f 82bb dffe 153e 611e 4abd
00000320: c62d ccbc 3c86 e63d a666 03bd ac23 95bd
00000330: b83f 1ebd 04c9 9abd 0809 1abd 2261 8abd
00000340: a7d0 bb3b e753 663d 032f d53d 3dfd 1cbc
00000350: c3e6 d5bd caf7 95bc 6b62 203d 94c5 123c
00000360: cf8a 2abd e91a 3bbd 0854 71bc 2aaa de3d
00000370: 018f 74bc 81f4 4abd 5f52 8dbd 333b b33d
00000380: ff45 e2bc af45 59bd af96 fbbd 4cc3 aebd
00000390: 94ec b33d c538 a53c fb59 b23d 5ebc aa3d
000003a0: 1968 743c ec5a acbc d4cb dcbc 8168 a33d
000003b0: 7c1f 6bbd 9aba b8bd ce18 993c 89cc 0c3d
000003c0: a9b3 9d3d ec4a cdbd 8fa8 cbbd a703 9c3d
000003d0: d3c7 90bd efa6 91bb 9fde 4ebc ac26 e43d
000003e0: 5df9 f5bc 581f 9dbc c816 283e 0ee9 953d
000003f0: 3b91 bdbd c198 b8bd fdee c93a 5c41 2e3d
0.006234139 0.10350193 0.102707386 0.07622575 -0.025547324 0.0033138094 0.120994836 -0.09980031
0.12665254 -0.062147953 -0.057051536 0.093856856 0.11595539 -0.092185855 0.19441085 -0.013272393
-0.099689454 -0.12552518 -0.051513124 -0.044547785 -0.15486819 -0.025646007 0.025912955 0.091785796
-0.07374859 -0.027215473 0.10610376 0.0052261814 -0.08038579 -0.0348418 -0.06259894 0.0155831585
-0.01839774 -0.057705555 0.03509436 -0.052949283 -0.13012227 0.106129944 -0.009564893 0.16183126
-0.045233756 -0.072403274 0.037386872 -0.0852373 -0.026896637 -0.10526071 0.026613913 -0.036566652
-0.052931655 0.057409115 -0.07330008 -0.06560726 -0.15310825 0.094084434 0.06615272 -0.05947333
-0.14085475 -0.071054876 -0.07002576 0.049847085 0.101476476 -0.04388021 0.061760966 0.00818683
-0.07003566 -0.095296696 0.034620207 -0.114595614 -0.060421426 -0.032054912 -0.11323805 0.09550175
0.06508873 -0.019568648 -0.07854713 0.03024312 0.020630244 0.09485072 -0.0053546624 0.07253093
0.04977308 -0.014343304 -0.00334216 0.0735946 0.062527925 0.08036173 -0.0018293323 0.06821526
-0.123437196 0.12182337 0.0027328944 0.018800903 0.011862898 -0.01467846 -0.03405029 -0.04042124
-0.16830291 -0.037597254 0.11530718 -0.07562227 0.01412216 -0.108675845 0.16869083 0.15147647
-0.0033472192 -0.027560627 -0.0024518212 -0.021661026 -0.1314875 0.0106608085 -0.06652811 0.0036887794
-0.13534658 0.0930804 -0.031179076 0.10989047 -0.0014118177 0.06164489 -0.04522382 -0.036345266
0.022484431 0.03164026 0.095187545 -0.0065517277 -0.038239364 0.054050334 0.1370544 0.017231038
0.027416412 -0.050999723 0.04550858 0.0017080408 -0.015728105 -0.021889446 -0.11191028 0.036533132
0.07766271 0.015290639 -0.08228751 -0.062333345 -0.033866394 -0.0132002365 0.041052345 -0.12009188
0.049639426 -0.012507728 0.057523653 0.014569265 -0.0073140697 0.018836742 0.018753383 -0.039575756
-0.023008617 -0.00055450806 0.05736506 -0.082872234 -0.045205057 0.032431856 -0.010052886 -0.14344786
0.051349003 0.032430317 -0.11039972 -0.059299216 -0.009731796 0.047268733 -0.08365819 -0.022372626
0.08811019 0.053599324 0.110041045 -0.07804487 0.11821544 0.05370553 -0.10065752 0.12405898
0.11488949 -0.0047698827 -0.057061248 -0.018662011 0.02155408 0.05452676 0.05993321 -0.00010564728
-0.07210846 0.07566404 -0.01596291 0.1720818 0.011078229 0.022409054 0.07668865 0.046130024
0.1591384 -0.10427996 -0.083773956 -0.051828995 -0.03785619 -0.003971001 0.14648007 -0.049345378
-0.02492417 0.11256072 -0.032080315 -0.072821945 -0.038634986 -0.07557872 -0.03760627 -0.06756808
0.0057316604 0.05623236 0.104093574 -0.009581861 -0.10444405 -0.018306632 0.03915636 0.008958239
-0.041636284 -0.04567996 -0.014729507 0.108723 -0.014926673 -0.049549583 -0.06900477 0.08751526
-0.027621267 -0.05304497 -0.122846 -0.08533344 0.08785358 0.020168671 0.08708569 0.083367094
0.014917397 -0.021039449 -0.026952662 0.07978917 -0.057403073 -0.090199664 0.018688586 0.034374747
0.07700283 -0.10024056 -0.099442594 0.07617884 -0.070693634 -0.004444949 -0.012626319 0.111401886
-0.030026132 -0.019179985 0.1641494 0.07319842 -0.09256216 -0.090135105 0.0015406307 0.0425428

linear_layers.2.bias f4 [84]
00000000: f25e 753e 70cb 8eba c023 913e b27f dbbd
00000010: 3bd3 af3e f138 4fbd ab53 603c c5df 273e
00000020: ed86 543d ac6d 143e fbcc a43e f264 183e
00000030: dc95 0bbe 50c5 cb3d fdb0 1bbe 28d9 cebd
00000040: c73d 44bd e1da 59bd 5102 87bd 4701 cc3d
00000050: 6b24 823e b7bc d0bd 737c 8d3d 5609 b13e
00000060: 13cf bfbc 0494 ac3e 70df 0d3d 4b4d 42bc
00000070: b981 433e 98d4 c83e 5453 d63d c077 ca3e
00000080: 4f03 6e3c 0ab8 713d a090 0fbd 08af e33d
00000090: fb19 413e ce2d 7b3b 169e 57be a50b ad3c
000000a0: cb2a 4a3d b98e 43bd 29a2 b4bb 82bb d43d
000000b0: b3aa 5f3e a52d be3c f822 6c3e 470c f9bd
000000c0: 4e69 8d3c 2d51 dcbd d471 843e 7bf6 3e3e
000000d0: 491c 9b3e cc03 9bbd e5ab c23d 2178 d43c
000000e0: 9f71 b03e 713f 31bb 3e9a edbd a20b 5e3c
000000f0: 76cb 363e 742c 413e 5c28 963c 34c8 333e
00000100: 57a3 153d d867 80bd 52d9 53bd c9b9 9d3e
00000110: 0932 f93d cc73 b9bd 1c3a a63c 7968 793e
00000120: 950b 543e aab2 5f3e ca4d b43b a5d5 adbc
00000130: 3410 483c 294f 083e 7ccd af3e fe9c aebc
00000140: d5f0 9a3d e475 563e 1dda f93e 992d b43e
0.23962 -0.0010894369 0.28347588 -0.10717715 0.34340844 -0.050591413 0.013691823 0.16393955
0.051886488 0.14494962 0.32187638 0.14882258 -0.13631386 0.09949744 -0.15204234 -0.10100013
-0.047910478 -0.053187255 -0.06592239 0.09961181 0.2541841 -0.101922445 0.069085024 0.34577435
-0.02341417 0.33706677 0.034636915 -0.011859248 0.19092454 0.39224696 0.10465112 0.39544487
0.014527156 0.059013404 -0.035050035 0.11117369 0.18857567 0.0038326862 -0.21056399 0.021123717
0.049357217 -0.047743533 -0.005512495 0.10387327 0.2184246 0.023215124 0.23060215 -0.12160545
0.017262127 -0.107576706 0.25868094 0.18648712 0.30295017 -0.075690836 0.095054425 0.025936188
0.34461686 -0.002704587 -0.11601685 0.013552578 0.17851052 0.18864614 0.018329792 0.1755684
0.036532726 -0.062698066 -0.051720925 0.30805805 0.121677466 -0.090552896 0.02029138 0.2435626
0.20707543 0.21845499 0.0055024372 -0.021220038 0.012210894 0.13311447 0.3433646 -0.021315094
0.07565466 0.20943409 0.4879922 0.35191038

linear_layers.4.weight f4 [10, 84]
00000000: 8e7a 3cbe c10a 153e 1404 94be fa4b 9b3c
00000010: e8ff 34be b7e4 523d b11b 0e3e 28d1 a43d
00000020: 0818 403e a16f f13d 3ce6 a4bd 245e 87be
00000030: d1fc 243e 0447 53bd 1608 d23d ead0 f93d
00000040: 42e0 7bbd 8e03 5e3d 4a33 413d 5861 9dbd
00000050: 3f0d 21be 4b2b d2bd b142 2ebe e0a2 653c
00000060: 644a 8e3d ffdd 60be 47c8 d53d 7afe bc3b
00000070: eacd 4cbe 46bf e4bd cfc8 e73d ae20 5ebe
00000080: 4584 3a3d f651 933e 7c79 aabb 31f8 a1bb
00000090: 35fe 08be 7039 3a3e 6fd2 a43d e59c 2c3c
000000a0: 1f57 7b3e c323 bc3d d81d 433d 496a d03d
000000b0: 6753 203e b969 44bc 05d7 66bc bc93 a83e
000000c0: a80e d93b 41c6 e43d 4bb2 a3bd 3347 373e
000000d0: c664 f4bd 01d4 1bbe 662b 4e3e b6f1 ab3d
000000e0: 2921 ff3d ec47 93bd daef 903d 9e0d d1be
000000f0: 36d6 8b3e 0dfb 32bd 6921 bb3d dcb8 f5bd
00000100: a859 d33d 9151 cf3d 0c33 54bd fde2 133e
00000110: e9dd 04be 8ea9 d13e 3a82 a33d acc4 74be
00000120: acb8 04be 0c5d c7bd 5692 28be 4dde 4a3d
00000130: 3dfa 03be bd41 a8bc 87b0 873e 0472 073e
00000140: 5168 87bd 6f01 1cbe 5271 26be b3f1 513e
00000150: b18f 8dbd 0bc7 cc3d 8f4a 1ebe 8026 ee3b
00000160: 691c 3ebe e618 753d 6c8e 09bc f4ab 26be
00000170: 38be ba3e 432c 6b3d 19a0 b6bd c949 edbd
00000180: 9b11 873d f5e3 963d 8791 c6bd 4267 d63e
00000190: a141 f93d a13e c13d 2411 913c e00b 3d3d
000001a0: fe80 94be 2c70 f73c 1ad6 e73d 5306 aebe
000001b0: dd28 edbd 6e5c 91be 46a4 2fbe df14 663d
000001c0: fa05 0cbe 1fa9 c2bd 24b8 303e 94fa 8fbe
000001d0: a44d 33be 0d19 663e 07b8 033d bfd2 94bc
000001e0: e9b1 4fbd 950f 36be 22a7 f43e 928d 343d
000001f0: 8081 48bd 6d9e bfbd 9d76 203d 1c4e 9abd
00000200: a4f9 d7bc fcce 813d bfa3 3d3d 9653 073e
00000210: 10f3 5fbe 05d2 21bd 6a8e c5be d07e 1c3d
00000220: 2e00 1ebe 51a1 d23c a094 ccbd 2491 43bb
00000230: ad68 b5be f424 673d 5c5c ad3c 9b80 883e
00000240: 7f68 303d 4508 04be bd2e b2bd 89f0 febd
00000250: c80f 753e 4c00 e83c e4aa 363c 8b1a fcbd
00000260: fb60 07be 3faa 71bd a250 773d d12a bb3d
00000270: 6db0 d7bd beeb 09be ca18 853e b0df c1bd
00000280: 75fb 133e f1e8 443e 2349 09be 052e 263e
00000290: 5273 aabb dbb8 4c3c 4fb4 19be 980a b0bd
000002a0: caeb 94bd b284 c03d fe74 f9ba fbc9 93bd
000002b0: 901f 343e 7714 c83d 3f71 27be 3581 77bd
000002c0: dac1 dfbd f2af fabd 1355 483d e556 3fbd
000002d0: 5f79 5abd 44eb 8dbd b77a a2bc 1fa4 12be
000002e0: 4d2b d33c 0f8c 92bc 4b93 b93c db3e 6dbe
000002f0: 0e1b 0b3e fcda f93c a1c0 a43d edb7 c23e
00000300: 8e57 b53c 3c94 efbd 10e3 ba3e e8bd 97bc
00000310: f5f3 2bbc a201 813e 0765 85bd 5def 9e3c
00000320: 2471 413e b636 b23d 857f 10be a578 fc3d
00000330: c802 d6bd d542 123d cbd3 6bbe bbcd c83d
00000340: e6f8 2d3e c4db 043d a1fb 63bd 9ca4 9bbd
00000350: e7cf f33d 8c48 89bd ce86 b13d 1995 df3d
00000360: 753a 033e be2c d93d 1ba6 8f3e 85fb 5bbd
00000370: c8a4 283e 1911 e33d 4aab ff3d 17e6 4ebe
00000380: 6c92 f6bd b601 7c3e cb9f d8bd 59d7 f73d
00000390: 51aa 68bd d565 283e 4fa3 eb3d f84d e93c
000003a0: fd53 a1bd b360 89bd 4fb0 e03b ded9 693e
000003b0: af04 dcbc dd5e 26bd 1270 a33c b528 69bd
000003c0: 4f2c df3d 08b7 fdbd 3504 3bbd 64f5 09bd
000003d0: 2c2c e8bd 5f19 a93c 485a a73e cbf5 74be
000003e0: a57f 213d 0a32 213d 5481 6c3e 482c 5a3d
000003f0: 50db 8f3e 2a05 81be 3d30 fa3d 04bf cdbb
-0.18406126 0.14554884 -0.2890936 0.018957127 -0.17675745 0.05148765 0.13877751 0.08047706
0.18759167 0.1178887 -0.08051726 -0.2643901 0.16112067 -0.051581398 0.102554485 0.1219805
-0.061493166 0.05420261 0.047168054 -0.076845825 -0.15727709 -0.10262164 -0.17017628 0.014015883
0.06947783 -0.21959685 0.104385905 0.0057676407 -0.20000425 -0.11169295 0.11317598 -0.21692154
0.0455363 0.2877347 -0.0052024703 -0.004942917 -0.13378222 0.18185973 0.080479495 0.010535453
0.24544953 0.091865085 0.047635883 0.10176522 0.15656815 -0.011988097 -0.014089351 0.32925212
0.0066240616 0.111706264 -0.07992991 0.17898254 -0.119332835 -0.15217592 0.20133743 0.08395712
0.12457497 -0.071914524 0.07076998 -0.40830702 0.27311867 -0.043696452 0.09137232 -0.1199815
0.10319835 0.101229794 -0.051806495 0.14442058 -0.12975277 0.40949672 0.07983823 -0.2390315
-0.12961072 -0.09734544 -0.16462073 0.04952841 -0.12888427 -0.020539159 0.26501867 0.13227087
-0.06611694 -0.15234922 -0.16254166 0.20502357 -0.069121726 0.09998902 -0.1545813 0.007267773
-0.18565525 0.059838198 -0.008395772 -0.16276532 0.3647325 0.05741526 -0.08917255 -0.11586339
0.06595155 0.07367698 -0.09695726 0.41875654 0.12170721 0.09435774 0.017708369 0.046153903
-0.29004663 0.030204855 0.113201335 -0.339892 -0.1158006 -0.2839083 -0.17152509 0.056172248
-0.13674155 -0.095049135 0.17257744 -0.28120863 -0.17510086 0.22470494 0.032157924 -0.018166898
-0.050706778 -0.17779382 0.47783762 0.044080324 -0.048951626 -0.09356389 0.03917562 -0.075344294
-0.026364155 0.06338307 0.04629874 0.13215479 -0.21870065 -0.03950693 -0.38585216 0.038206875
-0.15429756 0.025711687 -0.099892855 -0.002984115 -0.35431424 0.056431726 0.021162204 0.26660618
0.043068405 -0.1289378 -0.08700321 -0.12448222 0.23931801 0.028320454 0.011149142 -0.1230975
-0.13220589 -0.05900025 0.06037963 0.09139026 -0.105316974 -0.13468835 0.25995475 -0.09466493
0.14451392 0.19229485 -0.13406806 0.16228493 -0.0052017355 0.012495245 -0.15010189 -0.085957706
-0.07271536 0.094003096 -0.0019032059 -0.07216259 0.17590165 0.09769528 -0.16351794 -0.060425956
-0.10925646 -0.1224059 0.048909258 -0.04671373 -0.053338405 -0.06929639 -0.019833906 -0.1432042
0.025777483 -0.01788905 0.022653243 -0.23168509 0.1358454 0.030499928 0.080445535 0.3803095
0.022136476 -0.11698195 0.3650136 -0.018523172 -0.010495176 0.25196558 -0.0651341 0.019401247
0.18890816 0.087018415 -0.14111145 0.123276986 -0.10449749 0.035708267 -0.23030011 0.09804865
0.16989478 0.032436147 -0.055659894 -0.07599756 0.119048886 -0.0670329 0.0866829 0.1091711
0.12815268 0.10604237 0.28056416 -0.053706665 0.16469109 0.110872455 0.12483843 -0.2020496
-0.120396465 0.24610028 -0.10577353 0.12101621 -0.05680305 0.16445096 0.11505758 0.028479561
-0.078773476 -0.06707897 0.006856955 0.22837016 -0.026857702 -0.040617812 0.0199509 -0.056923587
0.10897123 -0.12388426 -0.04565831 -0.03368129 -0.1133655 0.02064198 0.32686067 -0.23921888
0.039428372 0.03935436 0.2309621 0.053264886 0.2809701 -0.25199252 0.12216232 -0.0062788744

linear_layers.4.bias f4 [10]
00000000: 032e a3be a70c f8be 8304 6c3d 831b 993e
00000010: ccdc 0d3f 7310 3cbe 6708 103e 5fdf b0be
00000020: 95ca 6d3e 2488 c5be
-0.31871042 -0.48447153 0.05762149 0.29903802 0.55415034 -0.1836565 0.14065705 -0.3454542
0.2322181 -0.3858043
